testnn.pt (torch, 251818 bytes, 10 tensors)

weight f4 [6, 1, 5, 5]
00000000: 0087 c1bb 2d48 22be 63bd f4bd f872 36be
00000010: abf2 053e 9fd0 3bbe 395a 453e 54c1 103d
00000020: 1a65 cbbd 5251 17be a8d6 f1bc b89e 113d
00000030: 6a9d 21be 9204 d63d f493 1f3d fe31 863d
00000040: 530f 4a3e c25b 1fbe 7eee c23d 20ae 38bc
00000050: 47b5 233e 0003 a9bd e804 353d 604b f6bd
00000060: e9c3 4b3e 9279 873d 09fb 113e 00f0 8bbc
00000070: 60ab 39bc 3af9 dabd f244 41be 2d2c c0bd
00000080: 0821 1fbd c820 2d3d 232b a8bd 0a5a e93d
00000090: 0804 07be 2d7b 493e a2f9 e73d ee19 b83d
000000a0: 5a27 c63d 3ad3 9abd a683 0cbe 4340 efbd
000000b0: 4051 52bb b6ef 83bd dac3 ccbd 049a 623d
000000c0: 28f6 f33c 95ed 043e b714 a9bd be99 f13d
000000d0: a6f2 81bd 2ef7 1fbe 3192 303e 3d84 ddbd
000000e0: c42f 7e3d e87f dcbc 78ac 203d e03a 0a3c
000000f0: 927c e93d 1827 31bd 40f1 1bbb 3272 2abe
00000100: 708c 9ebd 3a01 983d e137 083e 20b0 583c
00000110: e6de 8dbd fc95 0abe 86af 903d c46a 00be
00000120: 0989 193e 0ceb 3a3d a0f7 bebd 0391 ccbd
00000130: eaf9 09be c51d 473e 8f29 0b3e cbc5 023e
00000140: 014c 113e 94fc 23bd 801c 4abc 0068 66b9
00000150: 6ab6 923d 1c92 6d3d eacd a1bd 2d16 073e
00000160: f998 2d3e 6d00 3e3e 5037 68bc 506c 233c
00000170: b466 01bd 8860 08be b202 f63d aeca a13d
00000180: f222 ba3d a8e1 923c 2bc3 443e 9058 32be
00000190: 9e40 1dbe f03f dabd 0034 13bd 4821 30bd
000001a0: 8c9f 3dbd a063 593c 2d16 26be 502a 82bd
000001b0: a01e 453d 4029 e93b 64be 5c3d 543d 89bd
000001c0: 98b3 c7bc 9f60 193e f2cd 803d 4386 263e
000001d0: 86b9 823d 90a8 d9bd c2a9 e03d 282a 68bd
000001e0: 7e06 c63d aa7d c13d caa4 91bd 4c41 69bd
000001f0: 0001 453d a8f1 5cbd 3871 48bd d166 343e
00000200: 6836 ac3c 3a9c 18be a852 163d 79eb 3d3e
00000210: dcd3 02be 40e1 dbbb 719e 1c3e 7879 0dbd
00000220: e129 2b3e 825d e43d e023 74bd d200 fb3d
00000230: a819 c33c d98c 4b3e 5ee2 1fbe a441 693d
00000240: e027 f6bd 28cf bf3c 405d b13b 5f7f 0c3e
00000250: c0cc a3bb f24f 2abe
-0.005905986 -0.15847845 -0.11950185 -0.17817295 0.13080852 -0.18341301 0.19272698 0.035340622
-0.09931393 -0.14777115 -0.029521301 0.035551757 -0.15782705 0.104500905 0.03895946 0.06552504
0.19732408 -0.15562347 0.09518145 -0.011271983 0.1598712 -0.08252525 0.044194132 -0.120260954
0.19898953 0.066149846 0.14255919 -0.017082214 -0.011332363 -0.106920674 -0.18873957 -0.09383426
-0.03884986 0.04226759 -0.08211353 0.11394127 -0.13185132 0.19675894 0.113269106 0.08989321
0.096754745 -0.075598195 -0.13722095 -0.11682179 -0.0032091886 -0.064422056 -0.09998293 0.055322662
0.029780462 0.12981255 -0.08255904 0.11796902 -0.0634511 -0.15621635 0.17243268 -0.10816238
0.06205727 -0.02691646 0.03922698 0.008436888 0.11400713 -0.043250173 -0.002379492 -0.16645125
-0.0774163 0.07422109 0.13302566 0.013225585 -0.0692728 -0.13533777 0.070647284 -0.12540728
0.14993681 0.045634314 -0.093245745 -0.09988596 -0.13474241 0.1944495 0.13590072 0.12770765
0.1418915 -0.0400358 -0.0123358965 -0.00021973252 0.07163699 0.05800067 -0.07900603 0.13192053
0.16952886 0.1855485 -0.014173344 0.009974554 -0.031592086 -0.13318074 0.12012233 0.07899986
0.090886965 0.017929867 0.19215076 -0.17416596 -0.15356681 -0.10656726 -0.035938263 -0.04300049
-0.046294734 0.013268381 -0.16219397 -0.06355727 0.04812491 0.007115513 0.05389251 -0.067011505
-0.02437763 0.14978264 0.06289281 0.16262154 0.06383042 -0.10627854 0.10969879 -0.05668083
0.09669207 0.09447797 -0.07111509 -0.056947038 0.048096657 -0.0539414 -0.0489361 0.17617346
0.021022037 -0.14903346 0.03669992 0.18546857 -0.1277613 -0.0067102015 0.15294816 -0.03453967
0.16715194 0.11150648 -0.059604526 0.12256016 0.023815945 0.19877948 -0.15613696 0.056947365
-0.12019324 0.02341421 0.0054127276 0.13720463 -0.0049987733 -0.16632059

bias f4 [6]
00000000: 6c01 6cbd 7743 493e aac6 823d d850 b83c
00000010: eba9 123e 00c1 47be
-0.057618544 0.19654642 0.063855484 0.022499487 0.14322631 -0.19507217

weight f4 [16, 6, 5, 5]
00000000: 4e27 95bd 3465 5e3d bcfb 313d a150 54bd
00000010: 19a3 83bd 6c77 153d 6ea8 8f3d 4c15 81bd
00000020: b20e a53d 6b26 90bd d45c 5e3d 86f4 a63d
00000030: b267 2cbd 6a87 163d 68e2 3c3d 2c29 01bd
00000040: 7eee 8e3d 0096 8739 083d e43c d258 90bd
00000050: b499 abbc 8964 25bd 5079 463d c1dd 3cbd
00000060: 7a5d 013d a421 3a3d 4224 40bd f973 9abd
00000070: 287d a1bd 5286 8e3d 1048 ae3b db7f 9abd
00000080: 2a07 9b3d a888 963d 403b 2e3b 689e 303d
00000090: 51de 82bd 52c3 67bd d9a1 8bbd 5866 3abc
000000a0: 18b8 463c 745d fc3c b44a c23c 4c2c 4e3d
000000b0: 0487 563d 9040 973c c6d7 813d 20aa 7d3c
000000c0: 5817 af3c 3c65 6ebd fbd0 46bd d457 8e3d
000000d0: c82f 1d3d d430 9f3d 78c3 4a3c 727c 253d
000000e0: 082e 77bc 262a f1bc e2dd f0bc 586c 133d
000000f0: fe74 0d3d 0bd5 4bbd 6c33 993c f4a5 a1bd
00000100: 2667 3bbd 086d a63d 00c6 d93b 5313 52bd
00000110: e8fa 503d 1850 973c 389a 5ebd d8d8 473d
00000120: 3484 af3c 504f 783d f605 95bd 385b 9b3c
00000130: 20e4 4e3b ec3b dabc b0c9 923d ffd0 13bd
00000140: 20ff 133b b169 81bd 6c24 6cbd 988c 4dbd
00000150: 0006 d339 14f1 22bd 8013 a2ba 5346 4dbd
00000160: 840c 18bd e5cb a6bd dc53 c73c 30d8 ee3c
00000170: 6c9e a23c c0a9 19bc 5a73 043d 511d 44bd
00000180: 748e 98bd 5002 973c 703d 27bd 93a4 92bd
00000190: 9416 0f3d a8fb e93c a457 85bc 6859 20bc
000001a0: beee 263d 901d 023c 44d1 a03d 83b3 21bd
000001b0: 66e5 913d c651 0b3d be37 91bd 3896 8bbc
000001c0: 29c1 8abd ec23 9b3c 2816 6f3d b251 303d
000001d0: 4ad9 133d 707c b8bb f830 0dbc 0aea 9dbd
000001e0: 044f 943d a4c6 7c3d c0f3 18bc bee8 a0bd
000001f0: 5404 9b3d ed4c 1cbd 12c0 a33d 8681 08bd
00000200: 10aa a53d 7c0f fe3c fc85 053d d89f 77bc
00000210: a003 36bd d04d 3b3c 70d1 8abb 00f6 4b3b
00000220: e023 823d 59a6 a6bd 18cb 773c a4cf 85bc
00000230: b0c4 323d 4ab2 823d e0f4 aa3c 7837 8b3c
00000240: 2a5d 7ebd 1614 d6bc 90e0 743c 40ef 863b
00000250: b055 9e3c 7825 aa3c 7461 92bc d21b 073d
00000260: c46f 593d 7a31 15bd e4eb 4f3d c98d a2bd
00000270: 3c7f 44bd ecc1 9d3c da20 1e3d 43e9 08bd
00000280: 680a 36bc 5a80 a6bd 9d70 61bd e841 d2bc
00000290: 14bf 59bd 16eb 7ebd 907b 823d 0a5f 043d
000002a0: 30c4 86bc e2bc 04bd 002b ec3c 8da9 40bd
000002b0: 80e3 6e3a 0cf9 693d dcbe 3a3d 909f af3b
000002c0: b4bc 6d3d 3cba 583d b4b4 a43c f083 9d3c
000002d0: a88c 9e3d 688a 4bbc 905d fd3b 809f 88ba
000002e0: 40c7 c4bc d44f 933d 59bb 91bd 04e0 1a3d
000002f0: b449 a03c 4c9a 16bd 27e6 4dbd 903e a3bb
00000300: 9ee7 23bd 72ee 943d f3f9 28bd 28f8 6cbd
00000310: f065 91bb 7811 4f3d 604e 0ebc 9953 58bd
00000320: f649 7ebd c06d 443b 781f 393c 54c4 43bd
00000330: 2028 5e3c f0ef a6bd 2672 4dbd d0b9 8cbb
00000340: f0df 2abc c042 093b 1fd2 60bd ecc2 243d
00000350: 743b 83bc 8801 4bbd 6607 80bd 5146 4ebd
00000360: a824 26bd 005b bd3b 58e0 653c 7066 f83c
00000370: 86fd 0d3d 89e8 23bd d0e9 e43c f860 893d
00000380: 34c6 403d 56f9 953d ecdb 093d ff2c 81bd
00000390: a213 813d b8ed 49bd f273 14bd e053 32bd
000003a0: 4c3e 08bd 68dd 9e3c 3a34 a2bd 64e0 a53c
000003b0: 86c7 5bbd 601d 00bb f873 e03c b5d5 11bd
000003c0: 2aeb 203d 05bf a4bd e06b 68bc 76eb 013d
000003d0: 51ea a5bd 539a 53bd c00e 793c 7a78 67bd
000003e0: 723a 913d d98a 32bd 14ba 66bd b854 823d
000003f0: 479f 8ebd 74e1 813c 907f bc3c fb9c 04bd
-0.072828874 0.054295734 0.043452963 -0.051834706 -0.06427593 0.036490843 0.07014547 -0.0630289
0.080594435 -0.07038578 0.054287747 0.08152108 -0.04209108 0.036750235 0.046114355 -0.031533405
0.069790825 0.00025860965 0.027861133 -0.07048191 -0.020947315 -0.04037908 0.048455536 -0.04610992
0.031583287 0.04544224 -0.04690958 -0.07541651 -0.078852 0.06959213 0.005318649 -0.07543918
0.07569726 0.07350284 0.0026585609 0.043119818 -0.0639006 -0.056582756 -0.06817979 -0.01137694
0.012128852 0.03080628 0.023717262 0.050335214 0.052374855 0.018463403 0.06339984 0.0154824555
0.021373436 -0.058202013 -0.048539143 0.06950346 0.038375646 0.07772985 0.012375705 0.040401883
-0.015086658 -0.029439043 -0.029402677 0.035991997 0.0345354 -0.04976372 0.018701278 -0.07892981
-0.045752667 0.08126265 0.006645918 -0.05128796 0.051020533 0.018470809 -0.054346293 0.048790783
0.021425344 0.060622513 -0.072765276 0.018964395 0.0031569079 -0.026639901 0.07167375 -0.036087986
0.0022582486 -0.06318987 -0.057651922 -0.05018291 0.00040249527 -0.03978069 -0.0012365431 -0.050115895
-0.03712131 -0.081443585 0.02433198 0.02915582 0.019850932 -0.00937885 0.03233657 -0.04787952
-0.07449046 0.01843372 -0.040830076 -0.07160296 0.03493364 0.028562382 -0.016277142 -0.009786941
0.040755026 0.007941619 0.07852414 -0.039477836 0.071238324 0.034013532 -0.0709071 -0.017039403
-0.067751236 0.018938027 0.05837074 0.04304666 0.036095895 -0.0056300685 -0.008617632 -0.07710655
0.072416335 0.061712876 -0.009335458 -0.07856892 0.07569185 -0.0381593 0.07995619 -0.03332665
0.080890775 0.031013243 0.03259848 -0.015113793 -0.04443705 0.011432126 -0.0042363927 0.003112197
0.06354499 -0.08137197 0.015124105 -0.016334362 0.043644607 0.06381662 0.020868719 0.016994223
-0.062100567 -0.026132625 0.014946118 0.0041178763 0.019327968 0.02076982 -0.017868735 0.032985516
0.053085104 -0.036424138 0.050762072 -0.079371996 -0.047972903 0.019257508 0.03860555 -0.03342558
-0.0111108795 -0.0812995 -0.055039037 -0.025666192 -0.053160742 -0.062235914 0.06371224 0.0323172
-0.016450971 -0.032406695 0.028829098 -0.047036696 0.00091128796 0.057122275 0.045592174 0.0053595975
0.05804129 0.052911982 0.020105697 0.019227952 0.07741672 -0.012423135 0.007732101 -0.0010423511
-0.024020791 0.071929604 -0.07115812 0.037811294 0.019566394 -0.036768243 -0.05026832 -0.0049818233
-0.04001581 0.07272042 -0.041253995 -0.057853848 -0.0044372007 0.05055377 -0.008685678 -0.0528141
-0.062082253 0.0029972643 0.011299007 -0.047794655 0.013559371 -0.08151233 -0.05015769 -0.0042946115
-0.010429367 0.0020944327 -0.054887887 0.040224954 -0.01601956 -0.049562007 -0.06251411 -0.050360028
-0.040562302 0.0057786703 0.0140305385 0.030322284 0.034665607 -0.040016685 0.027943522 0.067079484
0.04706402 0.07322948 0.033657 -0.063074104 0.06302573 -0.049298972 -0.036243387 -0.04353702
-0.033262536 0.019392684 -0.07920118 0.0202486 -0.053657077 -0.001954876 0.027399048 -0.035604198
0.03928677 -0.080442466 -0.014185876 0.031718694 -0.08101333 -0.051660847 0.015201271 -0.05651138
0.07091226 -0.043589447 -0.0563298 0.06363815 -0.069639735 0.015854575 0.023010045 -0.03237627

bias f4 [16]
00000000: b3b4 a1bd 1839 383c 3e40 19bd 8429 933c
00000010: c275 58bd 4e79 85bd 485e eebc 103b 5f3d
00000020: 91ce 9ebd 4696 94bd 7069 5f3d 204d 36bb
00000030: 6a30 893d a69f ebbc da43 9e3d 5cac 7bbd
-0.07895794 0.011244081 -0.03741478 0.017964132 -0.052846678 -0.06517278 -0.029097691 0.054499686
-0.07754243 -0.07255225 0.054543912 -0.0027816966 0.066986874 -0.02876265 0.077277854 -0.06144367

weight f4 [120, 400]
00000000: 18fa 06bd 348f 033c 567c df3c 6824 00bd
00000010: 048e 95bc 109c a1bc e760 253d 49f6 193d
00000020: 9623 ef3c 00d5 3b39 c0be 663a be05 07bd
00000030: c027 ed3a 582e d93b 9d45 ebbc 207d 6abb
00000040: 20d7 9dbc f361 383d ce9f 1abd c0ba ce3a
00000050: 6bb0 41bd 437e 22bd 08c0 6ebc 5a04 ecbc
00000060: 7be3 25bd 2459 563c 6988 183d ea1a fe3c
00000070: 9f83 2e3d 4d95 d9bc 294e 203d 38a3 443c
00000080: 3ef8 e83c 49a2 3f3d 419b 2f3d aa1d 9b3c
00000090: 1001 90bb 36e0 0dbd b009 7fbb c31b bcbc
000000a0: 8c0b 0abc 32ad cc3c 704f ecbb 2a97 b8bc
000000b0: 3a4d ffbc 298c 323d b5ff 30bd 0055 7ebc
000000c0: e3ad 443d 1a5b ec3c 549c 2cbc 8eda 983c
000000d0: f3c2 c0bc 82a4 803c 863c be3c eaae 0ebd
000000e0: 603d 52bb 320f 10bd d362 0b3d fb33 45bd
000000f0: 929b c63c da89 b73c ef4e 443d db53 163d
00000100: 2091 2d3b 687f 413c 8cc1 81bc 2eb3 04bd
00000110: 3605 d83c a032 57bc cf86 053d 2f04 183d
00000120: a90f 4a3d 31e8 393d 8ab5 b7bc a9e6 173d
00000130: d483 07bc c095 fbbb 7d51 c7bc 4072 fdba
00000140: 94ab 28bc 16b8 0cbd 6ee9 05bd 0035 4c3b
00000150: ec97 0ebc 6640 1abd d7f7 1c3d bdd7 e5bc
00000160: 9bd6 493d 7a9a 91bc e84e dd3b e3dd 22bd
00000170: 9a83 933c f6f8 9a3c a089 0abd 2838 3ebc
00000180: dcd0 653c 94d9 4e3c 0058 9839 506c f8bc
00000190: 7ce0 5f3c c0a4 c5bc 9684 9e3c 40f0 afbc
000001a0: 182d adbb 16e5 ce3c 2ab1 16bd 70d2 9ebb
000001b0: 737a f8bc c036 733a 3245 f23c 60d1 4a3c
000001c0: cde7 0fbd 2068 f5bc c932 4b3d da85 a2bc
000001d0: 8f09 223d b0ef 853b e734 223d a0e6 2d3b
000001e0: 2867 da3b 4cde 1bbc dce9 653c 3b4f 31bd
000001f0: 8c79 133c 87e9 143d 9d09 443d 80b4 023c
00000200: 40f8 c8bb 4c23 6a3c 409c a6bc c00c 533a
00000210: dd21 12bd d09f 383b 10e5 aa3b 20df f6bc
00000220: a5c4 0e3d d023 563b 201b 0bbb ba01 95bc
00000230: 4386 2a3d 3031 813b 8095 bbb9 3eec e23c
00000240: 8b79 283d 41c8 413d cda0 27bd 537c 023d
00000250: 6e10 ec3c 7cc8 643c 6839 9abb 3271 d03c
00000260: 1221 ce3c 5212 b83c 0806 43bc 3a43 b4bc
00000270: 91fa 0f3d 407b 0fbd b257 a33c 809e 75bc
00000280: 3247 e63c 4ec1 09bd 0feb 343d 4f49 47bd
00000290: 3027 e4bb 71f8 313d 6032 49bd 583b 933b
000002a0: 682d 2dbd a7e9 f7bc c29b 913c 1ddc 03bd
000002b0: 9092 d3bb b0bd 013b b076 df3b 1ed8 863c
000002c0: 94d2 60bc 935c 373d 7ad3 c5bc a7b7 ffbc
000002d0: c7a0 2b3d 8c7c 3bbc ee12 aa3c 63d5 a4bc
000002e0: d04d 563b 63da 1d3d 7a2c cdbc e2e2 d03c
000002f0: bd92 febc acf3 4fbc 0e30 993c e640 1bbd
00000300: 72a3 ba3c b33a 28bd ed38 f1bc 3a2a a8bc
00000310: 32e1 c23c 3956 003d a05a 54bb d8e5 223c
00000320: 3f45 363d 8c5c 3a3c 30f9 85bc 6655 86bc
00000330: b439 77bc 34ee 243c 2e93 f33c 2aa9 33bd
00000340: 9650 913c 234d 093d 6658 0abd f4d0 033c
00000350: 9375 193d 5762 fdbc b5d1 3abd 4a8b 36bd
00000360: 2e89 fd3c 0065 3939 80d9 b9b9 f0fc adbc
00000370: 8de0 36bd 004b ecbb b854 3dbd d8aa bfbb
00000380: a0f6 bfba 4206 873c b0ca a83b b0fa 053b
00000390: b2b5 be3c ae20 ef3c a037 7dbb 6704 bbbc
000003a0: b5ec 153d 1d01 31bd 27c6 d7bc d013 2a3b
000003b0: e18a 203d 40f2 f3bc 00f3 913a 76c6 e63c
000003c0: a8ba c03b 6697 893c f292 34bd cc5a 153c
000003d0: 36cf 84bc bba0 2a3d ec44 2abc 307d b9bc
000003e0: 7fae 34bd 009e a63b 8eec e83c c79c 9cbc
000003f0: 506d a2bc 4b16 24bd 08b0 1cbd d055 8fbc
-0.03295335 0.008029748 0.027280968 -0.03128472 -0.018256195 -0.019727737 0.040375616 0.03758839
0.029191773 0.00017913058 0.00088022277 -0.03296446 0.0018093511 0.006627839 -0.028719718 -0.0035780147
-0.019267619 0.045015287 -0.037750058 0.0015772209 -0.047287386 -0.039671194 -0.014572151 -0.028810669
-0.040500145 0.013082776 0.037239466 0.031018693 0.042605992 -0.02656045 0.03913704 0.012001805
0.028438684 0.046785627 0.04287267 0.018935043 -0.004394658 -0.034637652 -0.0038915686 -0.022962457
-0.008425605 0.02498493 -0.007211618 -0.022533018 -0.031164754 0.0435907 -0.04321261 -0.015523195
0.048017394 0.028852034 -0.010535318 0.018658902 -0.023530459 0.015703443 0.02322222 -0.03483478
-0.003208004 -0.03517074 0.034029793 -0.048145276 0.024244104 0.0224046 0.04792684 0.036701065
0.0026484206 0.011810161 -0.01583936 -0.03239744 0.026369672 -0.0131346285 0.032599267 0.037113365
0.04933134 0.04538745 -0.022425432 0.03708521 -0.008271176 -0.0076777637 -0.024330849 -0.0019336417
-0.010294814 -0.034355246 -0.03269332 0.003115952 -0.008703213 -0.03765907 0.038322296 -0.028056974
0.04927693 -0.017773855 0.006753791 -0.03976239 0.018007088 0.018917542 -0.033822656 -0.011610068
0.014026847 0.012625117 0.00029057264 -0.030325085 0.013664361 -0.02412641 0.019350331 -0.021476865
-0.0052849166 0.025255721 -0.03679005 -0.0048468634 -0.030331826 0.0009277873 0.02957401 0.01237902
-0.03513317 -0.029956877 0.04960898 -0.019839216 0.039559897 0.004087411 0.039601233 0.0026535168
0.006665129 -0.009513449 0.014032807 -0.04328845 0.009001147 0.03635552 0.04786073 0.007977605
-0.0061331093 0.014290642 -0.020338178 0.0008050911 -0.035676826 0.0028171428 0.0052152947 -0.030135691
0.034855504 0.0032675155 -0.0021225885 -0.0181893 0.04163195 0.003942631 -0.00035778806 0.02770054
0.041131537 0.047310118 -0.040924836 0.031856846 0.028816428 0.013963815 -0.0047065504 0.0254446
0.025162254 0.022469673 -0.011903293 -0.022004712 0.035151068 -0.03502965 0.019939277 -0.014991403
0.02811012 -0.033631615 0.04416948 -0.048653897 -0.0069626793 0.043449823 -0.049120307 0.0044931583
-0.04227963 -0.030262781 0.017774466 -0.03219234 -0.0064566806 0.00197969 0.0068195686 0.016460475
-0.013722081 0.04476602 -0.024148691 -0.031215502 0.041901376 -0.0114432685 0.02076098 -0.020121282
0.0032700188 0.038538348 -0.025045622 0.025498811 -0.03107583 -0.012692373 0.018699672 -0.03790369
0.022783015 -0.041071605 -0.02944609 -0.020527948 0.023789022 0.03133223 -0.003240265 0.009942494
0.044499632 0.011374604 -0.016354173 -0.016398143 -0.015089441 0.010066558 0.029733267 -0.0438625
0.017738622 0.03352083 -0.03377571 0.008045424 0.037465643 -0.030930681 -0.04561015 -0.04456643
0.030949201 0.000176806 -0.00035448 -0.021238774 -0.044647742 -0.007211089 -0.046223372 -0.0058492236
-0.0014645644 0.016482476 0.0051511154 0.002044361 0.023279998 0.029190388 -0.0038637891 -0.022829248
0.036602695 -0.043213952 -0.026339604 0.002595175 0.039194945 -0.0297786 0.0011135042 0.028170805
0.005881626 0.016795825 -0.04408545 0.009115886 -0.016212087 0.04165719 -0.010392409 -0.022642702
-0.044111725 0.005084753 0.02843311 -0.019117726 -0.019827515 -0.040060323 -0.038253814 -0.017496973

bias f4 [120]
00000000: f0e4 f93b 2053 393c 8066 11ba 07dd 49bd
00000010: 6ff3 42bd 3727 353d 083d 2f3c a49a 6c3c
00000020: 808b 83bb 9647 843c 00a2 29bb f880 42bc
00000030: d2c3 b43c 18bc 9fbb ea6c 0dbd 4358 3bbd
00000040: d306 0b3d b0b2 e63b 574a c4bc 20fa 1bbd
00000050: e73c 0a3d 0dda e1bc 99c3 293d 26cc 1bbd
00000060: 48bb 33bc 0a5e 0abd 40f4 d3bb dcde 5b3c
00000070: 13b6 2fbd 15d8 34bd b033 3e3b c0ac 01bc
00000080: ab9d 413d a05e 25bc 0cbe 1cbc 3169 2d3d
00000090: d0cf 00bd 04ff 89bc ca83 ce3c 13c2 c7bc
000000a0: 1fdc 45bd 60d5 e73a 890f 493d d558 14bd
000000b0: fc18 84bc 2d0f ddbc 4764 3dbd 6073 ddbc
000000c0: 6a19 87bc 5a9a 13bd 0c1f 743c 3024 1a3b
000000d0: fd9b 443d 68d6 9e3b 9b6a 4bbd 23db bdbc
000000e0: 497c 3d3d 7818 46bd 65b8 3cbd 13fd 113d
000000f0: edb1 423d 3046 463b d91c 4a3d 10ba d7bc
00000100: 9269 e53c f2ce e23c 7e00 1abd 0072 303a
00000110: f0b0 98bc 0c20 403c f0f7 edbc 4c2f 77bc
00000120: a0ca 223c 535c 1e3d 12ce b83c dcff 03bd
00000130: 0016 d73b fa6c c8bc 7c27 94bc c304 1f3d
00000140: 5864 e53b add6 cbbc 4fb0 113d 17fc dfbc
00000150: 3660 01bd 00c6 a6b8 58f5 ebbb d35a aebc
00000160: ac26 92bc cd2e fdbc 6ad3 84bc da7a 47bd
00000170: 10aa b9bb 3713 2f3d 8041 22bb 6801 e53b
00000180: d078 c7bc e8c3 f93b d52d 3cbd 8a93 a33c
00000190: 79e5 323d 0090 d3b8 934f c8bc 33f5 a1bc
000001a0: 1804 78bc 2c83 4f3c f24e de3c 3a77 13bd
000001b0: 744a 5d3c 8d4a eebc c07c f93b ac62 283c
000001c0: 2158 373d 8175 4c3d 0874 423c 8740 193d
000001d0: 40f4 e2bc dfd3 46bd 82b0 9f3c f24c f53c
0.0076261684 0.011311322 -0.0005546585 -0.049283054 -0.047595438 0.04422685 0.010695703 0.014441166
-0.0040144324 0.016147416 -0.0025883913 -0.011871569 0.02206603 -0.0048747174 -0.034527697 -0.04573847
0.033942055 0.007040344 -0.02396123 -0.038080335 0.033749487 -0.027569795 0.041446302 -0.038036488
-0.010969944 -0.03378109 -0.006468326 0.013419833 -0.04289825 -0.044151384 0.0029022507 -0.007914722
0.047269505 -0.010093361 -0.009566795 0.042336646 -0.031448185 -0.016845234 0.025209326 -0.024384534
-0.048305627 0.0017687492 0.04908708 -0.03621753 -0.016125195 -0.026984775 -0.04623821 -0.027032554
-0.01649161 -0.036035873 0.01489998 0.0023520105 0.048000325 0.0048473366 -0.049662214 -0.023175782
0.046261106 -0.04836318 -0.04607429 0.03564174 0.047532964 0.0030254237 0.049343918 -0.026333839
0.028004441 0.02768657 -0.037598126 0.00067308545 -0.018639058 0.011726391 -0.02904889 -0.01508696
0.009936005 0.038662266 0.0225592 -0.03222643 0.006563902 -0.024466027 -0.018085234 0.0388229
0.0070004873 -0.024882639 0.03556853 -0.027341885 -0.031585895 -7.952377e-05 -0.007200878 -0.021283543
-0.017840706 -0.030906105 -0.016214091 -0.048701145 -0.005666025 0.042742934 -0.002475828 0.006988693
-0.0243496 0.007622231 -0.045942146 0.019967813 0.043675873 -0.00010088086 -0.024452006 -0.01977024
-0.015137695 0.012665551 0.027137253 -0.036002375 0.013506521 -0.029088283 0.0076137483 0.010277431
0.04476178 0.049916748 0.011868484 0.037415054 -0.027704358 -0.0485419 0.019493345 0.029943917

weight f4 [84, 120]
00000000: 00ab 663d 6d5a 9dbd 7ad7 a93d 06d9 8c3d
00000010: 144c ffbc 6afe 843d c4fc 31bd 3889 2f3d
00000020: b081 1e3d 2074 8cbd d09d 923d f0e6 d1bc
00000030: c670 833d 18a1 7abc eaf1 063d e06e 39bd
00000040: 44ac 7a3d 3010 983d 90e4 b23d 00bd fa3b
00000050: 18ef 483d b0f2 b33c 43b5 4cbd 6406 903d
00000060: e487 723d 10a7 393d 2852 4e3c 6425 833d
00000070: b4ab a2bc ecf0 89bd 4ca7 babd e52b 61bd
00000080: 8016 063b 51b7 65bd 036a b5bd e0eb 7f3b
00000090: c669 24bd a816 103d b40d b83d dc70 de3c
000000a0: 61b4 28bd 98aa 653d d2dc 82bd 4e82 6abd
000000b0: d053 803c 8217 96bd 3926 3abd 7200 873d
000000c0: 4738 9cbd c449 493d 6ccc 1b3d 3841 47bc
000000d0: 2045 b9bc e0b1 65bb 1785 27bd a86e d23c
000000e0: f8ce 903d 00df 85bb 5035 8dbb 2404 88bd
000000f0: 2121 80bd 209a 8abd b8f1 543c 7466 5cbd
00000100: ca6b f0bc 3612 863d 2421 813d ec09 aebd
00000110: 49df 0cbd 5485 9e3c c0d0 873d c229 aa3d
00000120: 3020 8ebd 6cb4 563d b4a5 9fbd 95f9 6abd
00000130: f6da 843d 8030 3dbb c0b2 f5ba a6dc 1dbd
00000140: 807d 3c3b a0c6 21bd f0fe bcbc faa0 3cbd
00000150: ecce b93d d495 c13c 347a c43c 89dc 28bd
00000160: 2aec 2bbd dd90 07bd d00f 863c 1841 0d3d
00000170: 409d 583c d852 c93c 5221 92bd 3872 dbbc
00000180: c6f5 9fbd 384d ad3d 00bc 37ba 34b0 56bd
00000190: c018 383c 1402 fd3c 782e 033d 160f a0bd
000001a0: 205b 933b 95a9 55bd cad1 a4bd 228a ab3d
000001b0: 50f5 9fbd 58ef b9bd 974f 73bd 600b bbbb
000001c0: b5e1 a9bd afe4 97bd c0f9 8e3b 1bad 0abd
000001d0: 48a4 a13d dc57 3e3d 38c4 553d 00d0 593d
000001e0: 7793 afbd 155a 84bd a416 85bc 043a e2bc
000001f0: 5057 813b 840b 3d3d 0466 f8bc 2011 babd
00000200: 5086 303d 6447 223d 68ee 733c 7c1e 923d
00000210: d079 733c 64c0 383d fa7e 973d a8c0 a13d
00000220: c05d a23d f88e 593d ece0 313d a4f2 50bd
00000230: 3945 94bd 9052 4abc 32bf 01bd 98e3 4a3d
00000240: 8410 a2bd 67dc b9bd a85d 103c e85e afbd
00000250: 72d3 003d 1682 afbd fa82 043d 7262 813d
00000260: e478 63bd 34ed c9bc 0878 0a3d 40f2 e0bc
00000270: f878 b53d e0a1 013c 34c8 573d 80e0 31bd
00000280: f434 4d3d 0e31 7dbd f3b6 b2bd e26f 873d
00000290: 0ad2 983d a45b 85bc d890 7bbc 100d 8b3c
000002a0: ecc4 a5bc b05e d7bc 0e52 ba3d 6f17 b1bd
000002b0: e18b 00bd 6906 41bd fd9e 81bd a471 513d
000002c0: 84b9 753d e08d 1c3d 10cd 5c3d 2c54 b33d
000002d0: 8876 913d 6c64 943c ecd3 a83d 80cf 22bb
000002e0: 54f2 163d e244 4ebd 78ef 7e3c 6857 a2bd
000002f0: 20b6 95bb 571e 48bd f825 903d 0006 c9bb
00000300: 9657 a4bd 9b88 47bd 208c 393d d8bd acbc
00000310: 8810 843d 4868 81bd d80c 5c3c 8e73 a4bd
00000320: dab8 8cbd fcad 453d ef61 4ebd f0d5 4ebd
00000330: 0c99 b13d c0dc f93a 48bc 413d 1854 dbbc
00000340: 4c6b 553d ec7b 913d 5966 07bd 6aa7 9a3d
00000350: 5823 703d 209e ef3b a448 d23c 791c b5bd
00000360: 0cfb fa3c 40e2 1cbc a771 53bd a478 613d
00000370: f4a6 363d 004e daba 56ea b23d 408a beba
00000380: ec58 6f3d 83a1 95bd 2a7f 98bd 94b0 b4bd
00000390: d38d 8ebd 007d 80b9 aea4 873d c0d6 8b3d
000003a0: 3cc8 693d f0be 89bd 7e45 02bd 5457 9abd
000003b0: 2839 9bbd f8ca d23c f06c b03b 36ff 843d
000003c0: 7c28 a7bd 681b 273d e8b4 8a3d 8024 d6bc
000003d0: acc0 e33c fc6a f93c 66ec b4bd 49fc 88bd
000003e0: 18e0 153d 9e3f 9d3d 9d53 82bd d837 bc3c
000003f0: 2cfd 1e3d d28f 0cbd e676 fcbc c6ea a03d
0.056315422 -0.07683263 0.08293052 0.068773314 -0.031164207 0.06493838 -0.043453947 0.04285547
0.0386979 -0.068580866 0.071590066 -0.025622815 0.06417994 -0.015297197 0.03294555 -0.045271754
0.06119944 0.074249625 0.08735001 0.007651925 0.049056143 0.021966308 -0.049977552 0.07032469
0.059211627 0.04532534 0.01259283 0.06403616 -0.019857265 -0.06735405 -0.091139406 -0.0549735
0.0020460188 -0.056083027 -0.08858111 0.0039050505 -0.040139936 0.035177857 0.08986989 0.027153425
-0.041187648 0.056070894 -0.063897744 -0.057253174 0.015664965 -0.073287025 -0.04544661 0.06591882
-0.076279216 0.049142614 0.03803675 -0.012161545 -0.02261597 -0.0035048649 -0.04089841 0.02568753
0.07070726 -0.0040854216 -0.004309334 -0.06641415 -0.06256319 -0.06767678 0.012997083 -0.053808644
-0.029348273 0.06546442 0.06305149 -0.08497986 -0.03439263 0.019350685 0.06631613 0.08308746
-0.06939733 0.052418157 -0.07795277 -0.057366926 0.06487076 -0.002886802 -0.0018745288 -0.038540505
0.0028761327 -0.039496064 -0.023070782 -0.046051957 0.0907267 0.023631014 0.023984052 -0.041225944
-0.04197327 -0.033097137 0.016364962 0.034485906 0.013221085 0.024575636 -0.071352616 -0.026787862
-0.078105494 0.08461994 -0.000700891 -0.052414134 0.01123637 0.03088478 0.032026738 -0.078153774
0.004496947 -0.05216368 -0.080478266 0.08375956 -0.078104615 -0.09078854 -0.059402075 -0.005708143
-0.08295003 -0.07416665 0.0043632686 -0.033856492 0.07892662 0.046470508 0.052189082 0.05317688
-0.085730486 -0.06462494 -0.016246147 -0.027615555 0.003947176 0.04615356 -0.030322082 -0.090852976
0.04309684 0.039618865 0.014888383 0.07134721 0.014860585 0.045105353 0.07397266 0.078980744
0.07928038 0.05311486 0.043427393 -0.05101265 -0.07239766 -0.012348786 -0.03167648 0.049533457
-0.07913306 -0.090752415 0.008811392 -0.08563024 0.03145165 -0.08569734 0.03235147 0.06317605
-0.055535212 -0.02464924 0.033805877 -0.027459264 0.088609636 0.007912129 0.052681163 -0.04342699
0.05009933 -0.06181436 -0.08726301 0.06613137 0.07461937 -0.01627905 -0.015354358 0.016974002
-0.020235501 -0.026290268 0.09097682 -0.08647048 -0.0313834 -0.047125254 -0.06329153 0.051133767
0.059991375 0.03822124 0.0539065 0.08756289 0.07102686 0.018114291 0.08243546 -0.0024842918
0.036852196 -0.05035866 0.0155600235 -0.07926828 -0.00456883 -0.04885706 0.07038492 -0.0061347485
-0.08024518 -0.04871426 0.04529965 -0.021086618 0.064484656 -0.06318718 0.013430797 -0.08029853
-0.06871195 0.048261628 -0.050386366 -0.050496995 0.086717695 0.0019062981 0.0472987 -0.026773497
0.05210428 0.07103714 -0.03305659 0.07551463 0.058627456 0.007312551 0.025669403 -0.08843321
0.030637287 -0.009575427 -0.05162206 0.055046692 0.044592813 -0.0016655326 0.08736102 -0.0014537051
0.058434412 -0.073061965 -0.074461296 -0.08822742 -0.069606446 -0.00024507195 0.06623207 0.0682807
0.057075724 -0.067258716 -0.031804554 -0.07536188 -0.07579261 0.025731549 0.00538408 0.0649399
-0.08162019 0.04079762 0.067727864 -0.026140451 0.027801834 0.030446522 -0.08834152 -0.066887446
0.036590666 0.0767815 -0.06363604 0.022975847 0.038815662 -0.034316845 -0.030818414 0.078572795

bias f4 [84]
00000000: f097 acbb b852 b6bd 8097 323c ee93 9f3d
00000010: 8809 2a3d 904b a2bd a400 5fbd 60a0 2e3c
00000020: 0c84 84bc 1368 5dbd a007 493d ef4c b8bd
00000030: 002d be39 c6b2 09bd 95e5 81bd c9aa a3bd
00000040: 8c6d 323d 31af abbd b8c1 9dbd 50fc 2fbd
00000050: 3001 193d 2c37 37bd 0806 24bd d06c f6bc
00000060: ba77 993d e897 85bd 8308 8dbd 34fe b5bd
00000070: 6482 753d c847 663c 6000 5abb 915e 82bd
00000080: 9835 a3bc 7ac2 65bd 5f64 03bd 88e7 953d
00000090: 28cd a03d 893b 82bd 00ba 203b 9819 c8bc
000000a0: 84d4 a93d 8807 943c c055 d5ba 6c76 823d
000000b0: 3419 113d c81f 183d f460 9c3d f68e 01bd
000000c0: 181a 30bc b0a8 ac3c a0fc a3bc 1c7c 663d
000000d0: e0f4 5f3d 4ba6 0abd b047 8fbd 5ec5 edbc
000000e0: 6470 9b3d a82a 3fbc dc6e a0bd a609 aabd
000000f0: e464 8a3c 2aa8 9abd 585c 373d 58d9 87bc
00000100: 88d0 793d 1125 5cbd 80ac 633d 1814 57bd
00000110: 6a2c 80bd dc80 873c 40a4 d3ba 2dad b0bd
00000120: c830 603d b81a 373d 9733 a4bd e01b 22bb
00000130: c609 a4bd f030 043c 0adf f0bc aaf2 09bd
00000140: 2434 f93c 2770 94bd 10b3 a53d 8c2a efbc
-0.005267136 -0.08902496 0.010900378 0.07791887 0.041512996 -0.07924569 -0.05444397 0.010658354
-0.016176246 -0.05405433 0.049079537 -0.08999049 0.00036273152 -0.033617757 -0.063426174 -0.07991559
0.043561503 -0.083830245 -0.077029645 -0.042965233 0.037354648 -0.04473035 -0.040044814 -0.030081183
0.07493539 -0.065231144 -0.06886389 -0.08886376 0.059938803 0.0140552 -0.0033264384 -0.06365693
-0.019923016 -0.05609367 -0.032078143 0.07319552 0.078516304 -0.06359012 0.0024524927 -0.024426267
0.08292487 0.018069997 -0.0016276166 0.063702434 0.035424426 0.037139684 0.0763568 -0.03163048
-0.010748409 0.02107653 -0.020017922 0.056270704 0.05467689 -0.033849996 -0.06996095 -0.029024776
0.07589796 -0.011667885 -0.07833645 -0.083026215 0.016893812 -0.07551606 0.0447658 -0.01658313
0.060989887 -0.053746287 0.05558443 -0.052509397 -0.06258471 0.016540937 -0.0016146973 -0.08626781
0.05473402 0.044703215 -0.080176525 -0.0024735853 -0.08009677 0.008068308 -0.029403228 -0.033678688
0.03042037 -0.07247954 0.08090794 -0.029195093

weight f4 [10, 84]
00000000: a5e1 d13d 3199 b53d fbd4 9f3d 9078 9cbc
00000010: 2ff1 8d3d 34cb c3bc a040 49bb 3f12 74bd
00000020: e644 293d 7637 263d 805d 593a 806d cabb
00000030: cc32 a03c 1483 ac3c 569c 86bd e0d0 8f3b
00000040: 5214 5a3d 7fbe 54bd 4b27 c73d aa3b 0f3d
00000050: 7089 ee3b 8a09 553d 1133 cbbd c47c c43c
00000060: 68ef 35bd 36a2 1d3d d849 cdbd 5e2e a6bd
00000070: 0ad1 51bd f8ca 513c 6158 78bd 8b7d 9fbd
00000080: 3084 ae3b 20f6 893b 5ebc 193d 264b 643d
00000090: d88b 16bd aad0 2e3d 41f1 a73d 1525 ae3d
000000a0: 8ac8 133d ce63 303d 9ee7 0e3d 8691 85bd
000000b0: bd5e babd 0433 b4bd 750f 58bd ecd2 ef3c
000000c0: 4932 d8bd 2355 d93d 00ab bcba 36b1 053d
000000d0: 0e6a 8dbd c830 bcbd 3225 06bd 0fb3 97bd
000000e0: 20cc 683c 9052 b7bd 9279 483d c43a d9bd
000000f0: 5056 e13b 49a9 dc3d 17d0 de3d d0e1 d53b
00000100: 2dae c3bd a99e c03d 4d80 923d 4c9c c0bc
00000110: a9eb 45bd c0d8 393c 8376 a93d b6e4 27bd
00000120: 9460 e5bc c2f3 8fbd 8705 be3d d2d4 483d
00000130: 184a 69bc d538 8c3d c6de 0b3d a0e3 5a3c
00000140: a42c d13c c4dc 15bd 12a8 8abd adba d33d
00000150: dc20 9dbd 7096 fbbb 9433 c73c 4d22 c83d
00000160: b2f7 653d 4044 1ebc 58bc cabc 5295 bebd
00000170: 5c52 e43c b54c 95bd e004 8abb e9e9 cc3d
00000180: 58c6 42bc ef56 78bd 3a69 313d 76a9 96bd
00000190: cb15 afbd c2b2 313d 8c5e e03c acec 21bd
000001a0: 3f29 a2bd 8279 6bbd bba2 dbbd cdc3 4fbd
000001b0: d824 9dbc fa3c 1b3d fc7f a4bd 053d c73d
000001c0: fab6 503d 5631 3ebd 6e2f 41bd 4f77 bc3d
000001d0: d79d ad3d 325b 7a3d 8092 003c f26b 60bd
000001e0: a408 98bd 6900 843d a8b0 a5bd dc5e 35bd
000001f0: 7031 d8bd 40d5 3c3c f993 cb3d 60f6 7a3b
00000200: f636 85bd af03 66bd ea04 593d 79fe a13d
00000210: d47e d03c 5c21 dc3c dc26 cdbc 3c25 e03c
00000220: 8c11 2cbd f951 cc3d eb0d 873d a285 26bd
00000230: 384e a7bd b03a b9bd 3906 a93d babe 213d
00000240: b5e3 babd e86f 8fbd 80ad 4fba da5e 333d
00000250: 901e 2ebc 3a36 08bd 61bb cc3d da91 a8bd
00000260: 58fc 46bc 5230 063d 36ea 523d 6e7b 5abd
00000270: 8307 843d e013 233b d014 f93b fd07 79bd
00000280: e4a6 8fbc 70a2 84bd f879 153c ba98 a7bd
00000290: 92e0 273d a5f2 55bd 4b52 b93d 67b8 803d
000002a0: a8b5 d8bd fc01 c2bc 4006 e53b ddb2 debd
000002b0: ff9b 8ebd 4a33 94bd 2380 d53d 62e6 5ebd
000002c0: 88f6 66bc 5cfc c03c e077 00bb 821a 7e3d
000002d0: b277 88bd 9ec8 3dbd 1e59 543d ed36 9d3d
000002e0: 9c82 f83c 8a47 403d caae 2f3d cd37 cdbd
000002f0: 659d cb3d 30d6 93bc ba5a 0ebd 48f6 67bc
00000300: 6741 aabd a039 21bd 1723 7dbd 40a7 273c
00000310: a11b 973d 1742 88bd 38b2 90bc 2769 6bbd
00000320: 0773 9b3d cdb9 b03d 96ba 6c3d f1d9 d13d
00000330: 4c99 87bd 3d88 da3d 5069 e53b 1890 97bc
00000340: 1003 333c 2f6a c63d 27ba bf3d ab8c 51bd
00000350: f85d 14bd 802f 223b bc7a 9d3c 5965 b7bd
00000360: c25d 773d e2bb 3e3d e8de 473c a4e7 18bd
00000370: 3c62 cdbc d834 07bc 48f9 5abc 7e3c 693d
00000380: 6623 423d 15c1 9c3d a6f8 a3bd c9ff 83bd
00000390: eb25 de3d 5546 893d 26cf cfbd fa00 cebd
000003a0: f8c6 8cbd f394 59bd d5af de3d b3f4 c43d
000003b0: 86e7 b6bd 7b6b cb3d 22ad 9abd d30f de3d
000003c0: c4db 0ebd 33ec 913d 72af 233d af1d 8e3d
000003d0: c810 d4bd fe66 b7bd beb2 0dbd 2cd7 8abd
000003e0: 948d f9bc 4544 cb3d 9682 143d 0ecb 31bd
000003f0: ec2a 8b3c e881 40bc b364 c63d e102 98bd
0.102481164 0.088671096 0.07804295 -0.019100457 0.06930768 -0.023900606 -0.0030708686 -0.059587713
0.041325472 0.040580235 0.00082918257 -0.006177604 0.019555472 0.021058597 -0.065727875 0.0043889135
0.053242035 -0.051939484 0.097242914 0.03496901 0.0072795674 0.05201105 -0.099218495 0.023985274
-0.04441777 0.038484775 -0.1002385 -0.081143126 -0.051224746 0.012804739 -0.06063116 -0.07787617
0.0053258166 0.0042102486 0.037533157 0.05573573 -0.03675446 0.042679466 0.082003124 0.085031666
0.03607992 0.04306393 0.034888856 -0.06521897 -0.09100101 -0.08798793 -0.052749116 0.02927538
-0.10556466 0.10611942 -0.0014394224 0.032639705 -0.06904994 -0.09188992 -0.032750316 -0.074071996
0.014208823 -0.089512944 0.048944063 -0.10606912 0.0068767443 0.10774476 0.10879534 0.006527163
-0.09554706 0.09405262 0.07153378 -0.023512028 -0.048320446 0.011343181 0.082745574 -0.0409896
-0.028000154 -0.07028915 0.09278398 0.049031086 -0.014238857 0.06846777 0.034148 0.013359934
0.025533982 -0.03658749 -0.06770338 0.1033834 -0.07672283 -0.0076778457 0.024316587 0.09772167
0.056144424 -0.009659827 -0.024748012 -0.09305824 0.027871303 -0.07290021 -0.004212007 0.10005552
-0.011888109 -0.06062978 0.043313242 -0.07356541 -0.085490786 0.043383367 0.027388833 -0.03953235
-0.07918023 -0.057488926 -0.10724398 -0.05072384 -0.019182608 0.03789995 -0.080322236 0.097284354
0.05095575 -0.04643377 -0.047164373 0.09202444 0.08477371 0.061122127 0.007847428 -0.054790445
-0.07423523 0.06445391 -0.08090335 -0.044279918 -0.105563045 0.011525452 0.09940333 0.0038293824
-0.065046236 -0.056155857 0.052983202 0.07909865 0.025451101 0.026871376 -0.025042944 0.027361505
-0.04200892 0.099765725 0.065944515 -0.040654786 -0.08169216 -0.09044397 0.0825314 0.03948853
-0.09125463 -0.07003766 -0.0007922277 0.04379163 -0.010627404 -0.03325484 0.09996677 -0.08230944
-0.012145124 0.032760926 0.051492892 -0.053340368 0.06446745 0.0024883673 0.007601358 -0.060798634
-0.017535634 -0.06476295 0.009123318 -0.08183427 0.04098565 -0.052233357 0.09048899 0.06285172
-0.10581523 -0.023682587 0.0069892704 -0.10873959 -0.06963348 -0.07236345 0.10424831 -0.05441893
-0.014096864 0.023557834 -0.00196027 0.062037 -0.06663455 -0.0463339 0.0518428 0.07676492
0.030335717 0.046943225 0.0428913 -0.10020409 0.0994213 -0.018046468 -0.034754492 -0.014157839
-0.08313256 -0.039361596 -0.061801042 0.010232747 0.07378317 -0.06653231 -0.017663106 -0.057473328
0.07590299 0.08629189 0.05779513 0.10246647 -0.06621036 0.10670517 0.0070010796 -0.018501326
0.010926023 0.09688222 0.093616776 -0.051159542 -0.036222428 0.002474755 0.019223563 -0.089548774
0.06039215 0.046565898 0.012199141 -0.037330285 -0.025071256 -0.008252345 -0.013365097 0.056942455
0.04739704 0.07654015 -0.0800641 -0.064452715 0.10847076 0.06702868 -0.10146932 -0.1005878
-0.06873888 -0.053120565 0.10873381 0.09616985 -0.08930878 0.0993261 -0.07552554 0.10842862
-0.034877554 0.071251296 0.03996224 0.069392554 -0.10354763 -0.08955191 -0.03459429 -0.06779322
-0.030463018 0.09925131 0.03625735 -0.04340654 0.01698824 -0.011749722 0.096871756 -0.07422424

bias f4 [10]
00000000: 60e2 a33b e663 7ebd 33a5 4abd be96 033d
00000010: 3596 65bd b475 ad3c 230d de3d 3224 683d
00000020: e762 bf3d 98da 5bbc
0.0050013512 -0.06210699 -0.049473953 0.03212618 -0.05605145 0.02117429 0.108423494 0.056675144
0.09345036 -0.013418816
